…
                                                                                                                                                                                                                                                                                                                                            from  n    params  module                                       arguments                                                                                                                                                   0                  -1  1      1856  ultralytics.nn.modules.conv.Conv             [3, 64, 3, 2]                                                                                                                                               1                  -1  1     73984  ultralytics.nn.modules.conv.Conv             [64, 128, 3, 2]                                                                                                                                             2                  -1  1    111872  ultralytics.nn.modules.block.C3k2            [128, 256, 1, True, 0.25]                                                                                                                                   3                  -1  1    590336  ultralytics.nn.modules.conv.Conv             [256, 256, 3, 2]                                                                                                                                            4                  -1  1    444928  ultralytics.nn.modules.block.C3k2            [256, 512, 1, True, 0.25]                                                                                                                                   5                  -1  1   2360320  ultralytics.nn.modules.conv.Conv             [512, 512, 3, 2]                                                                                                                                            6                  -1  1   1380352  ultralytics.nn.modules.block.C3k2            [512, 512, 1, True]                                                                                                                                         7                  -1  1   2360320  ultralytics.nn.modules.conv.Conv             [512, 512, 3, 2]                                                                                                                                            8                  -1  1   1380352  ultralytics.nn.modules.block.C3k2            [512, 512, 1, True]                                                                                                                                         9                  -1  1    656896  ultralytics.nn.modules.block.SPPF            [512, 512, 5, 3, True]                                                                                                                                     10                  -1  1    990976  ultralytics.nn.modules.block.C2PSA           [512, 512, 1]                                                                                                                                              11                  -1  1         0  torch.nn.modules.upsampling.Upsample         [None, 2, 'nearest']                                                                                                                                       12             [-1, 6]  1         0  ultralytics.nn.modules.conv.Concat           [1]                                                                                                                                                        13                  -1  1   1642496  ultralytics.nn.modules.block.C3k2            [1024, 512, 1, True]                                                                                                                                       14                  -1  1         0  torch.nn.modules.upsampling.Upsample         [None, 2, 'nearest']                                                                                                                                       15             [-1, 4]  1         0  ultralytics.nn.modules.conv.Concat           [1]                                                                                                                                                        16                  -1  1    542720  ultralytics.nn.modules.block.C3k2            [1024, 256, 1, True]                                                                                                                                       17                  -1  1    590336  ultralytics.nn.modules.conv.Conv             [256, 256, 3, 2]                                                                                                                                           18            [-1, 13]  1         0  ultralytics.nn.modules.conv.Concat           [1]                                                                                                                                                        19                  -1  1   1511424  ultralytics.nn.modules.block.C3k2            [768, 512, 1, True]                                                                                                                                        20                  -1  1   2360320  ultralytics.nn.modules.conv.Conv             [512, 512, 3, 2]                                                                                                                                           21            [-1, 10]  1         0  ultralytics.nn.modules.conv.Concat           [1]                                                                                                                                                        22                  -1  1   1974784  ultralytics.nn.modules.block.C3k2            [1024, 512, 1, True, 0.5, True]                                                                                                                            23        [16, 19, 22]  1   7995679  ultralytics.nn.modules.head.Segment26        [1, 32, 256, 1, True, [256, 512, 512]]                                                                                                                    YOLO26m-seg summary: 329 layers, 26,969,951 parameters, 26,969,951 gradients, 131.9 GFLOPs                                                                                                                                                             
…
